checkpoint/circle_net_c6_relu_30.pt (torch, 2291 bytes, 4 tensors)

0.weight f4 [16, 2]
000000 b6 10 3d 40 3d 21 f1 3f 1b 4a e9 be 1e 5f 39 40
       2.954145 1.8838269 -0.4556435 2.8964305
000010 df a5 1e be b0 1c 12 3e 26 12 a1 bf 32 25 e7 3f
       -0.15492962 0.14268756 -1.2583663 1.8058226
000020 9a 75 2e 40 23 f3 03 c0 b3 3f 4d 40 15 b2 3d 3f
       2.7259278 -2.061715 3.207013 0.74099857
000030 bd 8b ca 3f 00 cf 83 3f 31 f4 81 3f 1b 08 7b 3d
       1.5823895 1.0297546 1.0152646 0.061287027
000040 4b f8 e7 3f ab 89 ac 3f 9f 13 93 bf f0 6b 9e 3e
       1.8122648 1.3479513 -1.1490363 0.30941725
000050 b5 8c ba bf f5 e7 54 bf 71 60 ed bf 2f 79 16 40
       -1.457419 -0.8316644 -1.8545057 2.3511465
000060 69 e0 4b c0 40 32 c7 bf 52 51 09 be 0c 0f cb be
       -3.185572 -1.556221 -0.13409927 -0.39659917
000070 a0 3f 18 be 81 fc 8f c0 5d 3e c4 3f 13 ee 01 c0
       -0.14868021 -4.499573 1.5331532 -2.030156

0.bias f4 [16]
000000 d8 fb 4c 3f 2b 3a 46 3f 77 1c 6b be 95 00 a5 3f
       0.80071783 0.7743251 -0.22960077 1.2890803
000010 87 c2 67 3f 90 e9 9d 3f 07 fe d2 3e 21 02 54 bd
       0.905312 1.2336903 0.41209432 -0.051759843
000020 d7 68 09 3f 83 33 7c bb 5c b9 de 3e 58 ee f5 3f
       0.536756 -0.0038482852 0.43500793 1.9213362
000030 e8 41 7f 3f 70 27 bd be bc d8 9e 3f 4e 52 1a 3e
       0.9970994 -0.3694415 1.2409892 0.15070459

2.weight f4 [6, 16]
000000 13 6c 0f 40 07 0a bf bd a4 6a 7d be 6b 3f 3f bf
       2.2409713 -0.093280844 -0.24747711 -0.74706143
000010 a6 9d 65 3d 15 dc 0b 40 e6 10 9f 3f d1 1d 11 3f
       0.05605855 2.1853077 1.2427032 0.5668612
000020 cf 67 b7 3f 17 b2 0c be 82 42 65 bd c7 9e 85 bf
       1.4328555 -0.13739811 -0.05597163 -1.043908
000030 93 d5 00 bf 16 fc 37 be 40 f2 0b c0 f8 0a 81 bf
       -0.5032589 -0.17967257 -2.1866608 -1.0081472
000040 5c 6a 8b 3f ab 7c e0 3f 06 53 54 3e ac cb 93 3f
       1.0891833 1.7538046 0.20734796 1.1546531
000050 fe 8b ef bf c1 d7 cc be c9 ba 17 3f dc 2c cb be
       -1.8714597 -0.40008357 0.59269387 -0.39682662
000060 91 c1 52 3f 79 ba 05 bf 84 35 85 bf 20 a2 b6 3f
       0.8232661 -0.5223766 -1.0406957 1.4268227
000070 8a 21 ee bf 5e 71 bf 3d f5 51 10 bf a9 65 62 be
       -1.8603985 0.09347795 -0.56375057 -0.22109093
000080 42 a7 cf bf 38 8c 88 3f f8 d3 07 3e 3a 8e a2 3f
       -1.6222918 1.0667791 0.13264453 1.2699654
000090 24 5c f0 bd 08 37 bd bf 22 0e 3b bf 0b f1 5c be
       -0.117363244 -1.4782419 -0.7306844 -0.21576326
0000a0 8f a3 93 bf 5f 5a 49 3f 9b cd d9 3e f7 81 e0 3f
       -1.1534289 0.7865352 0.42539677 1.7539662
0000b0 90 7f 85 3f 7d c4 20 3e c4 9b 16 c0 df 0e b3 be
       1.0429554 0.15699954 -2.3532572 -0.34972283
0000c0 e2 14 c1 be 36 d4 ba bf 2c 83 b5 bd fe ca 55 bb
       -0.37711245 -1.4596012 -0.0886291 -0.0032622213
0000d0 7b bf e6 bf 6d 2c 39 bf d3 39 87 be 12 3e 61 be
       -1.8027185 -0.72333413 -0.26411304 -0.21996334
0000e0 10 08 a3 be c2 6d 0a 3e 8e 2b 7a 3f 0b 12 d6 3e
       -0.3184209 0.13518432 0.9772271 0.4181064
0000f0 95 60 12 40 e2 70 33 be 56 b1 e1 3f a8 59 a0 bf
       2.287145 -0.1752353 1.7632244 -1.2527361
000100 21 f5 c8 bf 63 fa 02 bf 54 22 28 be 32 6c a9 bf
       -1.5699807 -0.5116331 -0.16419345 -1.3236144
000110 32 67 ce 3f 53 f9 9a bf e6 b8 75 bf ac 13 07 bf
       1.6125243 -1.2107338 -0.9598526 -0.5276439
000120 ec 6d 7c bf f7 45 1a bf 6f 8f a8 3e 50 53 f3 bf
       -0.9860523 -0.6026301 0.3292193 -1.90098
000130 2a 76 e1 3e d8 cf aa bd 55 73 1e 40 60 65 97 3f
       0.44035465 -0.08340424 2.4757893 1.1827812
000140 db 4f 54 3f bf bf bf bf f6 42 5c 3e fd 95 71 bf
       0.8293435 -1.4980391 0.21509919 -0.9436949
000150 c3 1d cf 3f 38 d8 d1 3f a8 07 b3 3e 78 d2 b7 3e
       1.6180958 1.639411 0.3496678 0.35902762
000160 54 00 47 3e 81 b0 9c be 55 e3 4a bf cd ef b9 bf
       0.19433719 -0.30603412 -0.7925313 -1.4526306
000170 c2 02 da bf e3 0f 63 be ae 9a 99 3f 3f da a6 3f
       -1.7032092 -0.22174029 1.200033 1.3035353

2.bias f4 [6]
000000 96 a4 70 be 31 78 b8 bc 31 09 4d 3e cc 41 e2 3e
       -0.23500285 -0.02251825 0.20023037 0.44190824
000010 1c 13 bf 3e 61 d7 c6 be
       0.37319267 -0.38836196
