checkpoint/circle_net_c3_sigmoid_30.pt (torch, 2181 bytes, 4 tensors)

0.weight f4 [16, 2]
0	0x3fbd8428	1.4805956
1	0x4012bbd0	2.2927132
2	0xbfb438b5	-1.4079806
3	0x402216ca	2.532641
4	0xc00dc36c	-2.2150526
5	0xbeed8197	-0.46387932
6	0xbfc49571	-1.5358106
7	0x3ff7cf6f	1.9360179
8	0x4002bf24	2.0429163
9	0xc02d3163	-2.7061393
10	0x404b155c	3.1731787
11	0x3ebef742	0.37298018
12	0x4002e890	2.0454445
13	0x3dabc885	0.083878554
14	0x3f8c252d	1.0948845
15	0x3f034093	0.5127041
16	0x3fc5857b	1.543136
17	0x3f692d57	0.9108481
18	0xbf90329a	-1.1265442
19	0x3efdb72a	0.49553806
20	0xbf09fa9c	-0.53898025
21	0xbd003c7e	-0.03130769
22	0xbfa723ee	-1.305784
23	0x3fec2147	1.8447655
24	0xbfd76eb6	-1.6830661
25	0xc007935d	-2.1183693
26	0xbfae496f	-1.361616
27	0xc01cac32	-2.44801
28	0xbf6f5f36	-0.93504655
29	0xc01299e7	-2.2906435
30	0x3fad50d6	1.3540294
31	0xc011e45a	-2.2795625

0.bias f4 [16]
0	0xbf5c4871	-0.86048037
1	0x3f863c0a	1.0487072
2	0xbf0c7cac	-0.54877734
3	0x3f3bdacd	0.7338074
4	0xbf9b1606	-1.2116096
5	0x3f91ec95	1.1400324
6	0x3f05a2ac	0.5220134
7	0xbdecd759	-0.11564512
8	0x3d9643b7	0.07337134
9	0xbe397ef0	-0.18114829
10	0x3e8601fc	0.2617339
11	0x3f3d1378	0.7385783
12	0x3f54f1e5	0.831816
13	0x3f734e71	0.9504157
14	0x3f3d9ccc	0.7406738
15	0xbf5c275f	-0.85997576

2.weight f4 [3, 16]
0	0x402716ad	2.610759
1	0x3fa10398	1.2579222
2	0xbfb54f0b	-1.4164747
3	0x3f177725	0.59166175
4	0xbf8c110c	-1.0942702
5	0x400194b5	2.0247014
6	0x3f8e363d	1.1110302
7	0x3f581fd3	0.8442356
8	0x3fb95296	1.4478328
9	0xbe05fb01	-0.13084032
10	0xbe5220de	-0.2052035
11	0x3f16ef89	0.5895925
12	0xc0185080	-2.3799133
13	0xc027c962	-2.6216664
14	0xc00850f3	-2.1299407
15	0xbf98e3c9	-1.1944515
16	0xbfb1b504	-1.3883367
17	0x3f9442c9	1.1582881
18	0x4000b1d0	2.0108528
19	0x3fa8f84a	1.3200772
20	0xc0114255	-2.2696736
21	0xc03bd8f7	-2.9351175
22	0xbfd38b09	-1.6526805
23	0xbf6cf584	-0.9256213
24	0xbf9f38e2	-1.2439234
25	0x3f5be06c	0.85889316
26	0x3eca51bb	0.3951548
27	0x3f819ca5	1.0125929
28	0x3fcc42b3	1.5957855
29	0x3fa70280	1.3047638
30	0x3f3e2140	0.74269485
31	0xbf9d803e	-1.2304761
32	0xbf92f0b5	-1.1479708
33	0xc032a163	-2.7911003
34	0xbf007a34	-0.5018647
35	0xc0107b95	-2.2575428
36	0x404b3038	3.174818
37	0x3f683a0d	0.9071358
38	0x3f7b4686	0.98154485
39	0x3d9790b3	0.07400646
40	0xbc2af1ea	-0.010433653
41	0xbf5ccc9a	-0.862497
42	0xbe41f6a9	-0.1894175
43	0xc0028127	-2.0391328
44	0x3f47db9e	0.78069484
45	0x3fb56fd4	1.4174752
46	0x3fafb019	1.3725616
47	0x401a705e	2.4131083

2.bias f4 [3]
0	0x3e2b36e2	0.16720155
1	0x3c0991f2	0.0083966125
2	0xbdf515f8	-0.11967081
