checkpoint/circle_net_c2_sigmoid_30.pt (torch, 2117 bytes, 4 tensors)

0.weight f4 [16, 2]
0.17601795 2.5513208 -0.037504934 2.5922472 -0.16073172 -0.962531 -0.16270757 1.8880552
0.20245183 -2.3528378 0.42607874 1.5860163 0.5174014 0.023061536 0.3241883 -0.3899154
0.540079 0.038169842 -0.19572744 1.4381858 -0.24369338 0.94965214 -0.14112115 1.8931818
-0.47688305 -1.0590006 -0.049178045 -2.8187034 0.007354347 -3.0627706 0.07790626 -3.2680252
00000000: 0d3e 343e d748 2340 c69e 19bd 61e7 2540
00000010: db96 24be 6e68 76bf d09c 26be cbab f13f
00000020: 884f 4f3e e594 16c0 fe26 da3e 9502 cb3f
00000030: 6b74 043f 8ceb bc3c 02fc a53e fea2 c7be
00000040: 9e42 0a3f fb57 1c3d c66c 48be 7916 b83f
00000050: c28a 79be 671c 733f 1082 10be c853 f23f
00000060: 042a f4be 558d 87bf eb6e 49bd a365 34c0
00000070: bcfc f03b 6f04 44c0 518d 9f3d 5327 51c0

0.bias f4 [16]
0.14193374 0.03308983 -0.18599477 0.20337151 0.025373286 0.3416947 0.07812278 -0.21782915
0.19132201 -0.11325409 0.24460009 0.29226783 0.32613346 -0.05463896 0.039644286 0.0027707529
00000000: 1457 113e 3489 073d 6a75 3ebe 9f40 503e
00000010: a3db cf3c 9cf2 ae3e d6fe 9f3d 9b0e 5fbe
00000020: ebe9 433e c3f1 e7bd 7278 7a3e 21a4 953e
00000030: f7fa a63e 1acd 5fbd 0c62 223d 8595 353b

2.weight f4 [2, 16]
1.9114119 1.7197185 -0.73407316 1.1970325 -1.8075589 1.1872439 0.16548058 -0.16291593
0.18685526 0.9143325 0.6758585 1.1281217 -0.79647756 -2.0599341 -2.085575 -2.277129
-1.7078452 -1.9241792 0.6939446 -1.4417913 1.466702 -1.1312157 0.13138792 0.34978023
0.13277279 -1.1249994 -0.72817624 -1.5013257 0.6440473 1.9905611 2.2521665 2.398761
00000000: 25a9 f43f bc1f dc3f 38ec 3bbf 5c38 993f
00000010: 175e e7bf 9cf7 973f be73 293e 6fd3 26be
00000020: fc56 3f3e b211 6a3f 1005 2d3f 4b66 903f
00000030: f4e5 4bbf f6d5 03c0 107a 05c0 7bbc 11c0
00000040: ac9a dabf 814b f6bf 5aa6 313f 9e8c b8bf
00000050: e4bc bb3f adcb 90bf 8e8a 063e 6516 b33e
00000060: 97f5 073e fbff 8fbf c269 3abf 712b c0bf
00000070: 49e0 243f b5ca fe3f 7f23 1040 4d85 1940

2.bias f4 [2]
-0.13851371 -0.16102016
00000000: 8ad6 0dbe 78e2 24be
