checkpoint/circle_net_c2_relu_30.pt (torch, 2035 bytes, 4 tensors)

0.weight f4 [16, 2]
000000 ab d6 ad 3e e6 83 0c 40 06 39 5f bd 3a 31 cc 3f
       0.3395284 2.1955504 -0.05449774 1.5952523
000010 df a5 1e be b0 1c 12 3e 47 75 6b be db ce c0 3f
       -0.15492962 0.14268756 -0.22993957 1.5063127
000020 66 fb 18 3f b6 3b 7b bf 11 b3 e8 3e 96 78 b6 3f
       0.59758604 -0.98137987 0.45449117 1.425555
000030 83 14 06 3f c0 7e 61 3c 67 f9 ae 3e 63 c7 f2 bd
       0.5237505 0.01376313 0.34174654 -0.11854436
000040 88 1b 0c 3f dd e9 60 3c a0 fa ac be 82 54 c8 3e
       0.5472951 0.013727632 -0.33784962 0.39126974
000050 5c 16 5c be 6f c7 24 3f 6e 84 71 be f1 39 e0 3f
       -0.21492904 0.6436681 -0.23585674 1.7517682
000060 7b 21 d6 be 5d 33 87 bf 69 11 ab be b5 9f 52 bf
       -0.4182242 -1.056255 -0.3341172 -0.82274944
000070 21 5a 3e 3a cd 7e 3b c0 76 ac 96 3e 5a d6 0d c0
       0.0007261355 -2.9296143 0.29428452 -2.216208

0.bias f4 [16]
000000 20 68 42 3f 58 7c ac 3e 77 1c 6b be 47 a2 01 3f
       0.7594013 0.33688617 -0.22960077 0.5063824
000010 47 b3 69 3e 4d b7 35 3f 91 57 98 3d 61 95 63 be
       0.22822295 0.7098282 0.07438577 -0.22224952
000020 38 fa 3f 3e 5d 91 22 be c7 90 a2 3e a4 04 1d 3f
       0.18747795 -0.15875764 0.3175108 0.61335206
000030 49 b2 1b 3f 90 35 88 bd 51 75 4a 3f 19 50 32 3f
       0.60818917 -0.06650841 0.7908526 0.6965347

2.weight f4 [2, 16]
000000 4d 9a ce 3f a3 5c 72 3f a4 6a 7d be b0 b5 66 3f
       1.6140839 0.946726 -0.24747711 0.90120983
000010 06 75 43 bf 9f 2b 86 3f 6b 94 d5 3d 70 5a 3c 3d
       -0.7635044 1.0482062 0.10428699 0.045984685
000020 60 52 ea 3d fa b0 1d 3e cf 7c e7 3e 85 f3 7e 3f
       0.11441493 0.15399542 0.4521241 0.9959033
000030 04 af 50 bf 16 92 0a bf ce d3 fd bf 6b 31 bd bf
       -0.8151705 -0.5412916 -1.9830263 -1.4780706
000040 d9 8b b4 bf 1f 5a 93 bf 06 53 54 3e 76 af 92 bf
       -1.4105178 -1.1511878 0.20734796 -1.1459796
000050 7d 65 d8 3e b3 ff 7d bf 8f 33 45 3e 35 43 10 3e
       0.4226493 -0.9921829 0.1925795 0.14088137
000060 fb 22 52 3e af b4 ba be 2b 23 01 bf 3d 3f af bf
       0.20521156 -0.36465976 -0.5044429 -1.3691174
000070 0c a9 29 3f b4 9e f1 3e 9c 93 09 40 2c c3 cc 3f
       0.6627357 0.47191393 2.1496344 1.5997062

2.bias f4 [2]
000000 d4 fd 92 be 32 ff 4b bc
       -0.2870928 -0.01245098
