checkpoint/circle_net_c3_relu_30.pt (torch, 2099 bytes, 4 tensors)

0.weight f4 [16, 2]
1.8525122 2.6751368 -0.6380057 1.0989635 -0.15492962 0.14268756 -1.2758095 0.95999444
2.0468009 -2.7013662 2.4028811 0.29137516 0.63043386 0.27644792 0.2797189 -0.06222285
0.8785276 0.88867533 -0.24550822 0.1449942 -0.49658307 -0.0628469 -1.2950493 1.0257705
-1.4207226 -1.4137774 -0.19041578 -0.56179637 -0.63887036 -1.4228903 1.3049964 -1.8874654
00000000: 1f1f ed3f 7135 2b40 5754 23bf d6aa 8c3f
00000010: dfa5 1ebe b01c 123e ba4d a3bf 32c2 753f
00000020: c9fe 0240 2fe3 2cc0 cec8 1940 202f 953e
00000030: 1d64 213f 958a 8d3e 5137 8f3e 63dd 7ebd
00000040: 2fe7 603f 3a80 633f 8266 7bbe 5c79 143e
00000050: 2340 febe e0b5 80bd 2dc4 a5bf 734c 833f
00000060: 3dda b5bf a8f6 b4bf 5bfc 42be e3d1 0fbf
00000070: 028d 23bf 4521 b6bf 1f0a a73f 7798 f1bf

0.bias f4 [16]
0.62828356 0.77083814 -0.22960077 1.3477927 0.45081744 1.626189 0.24329463 -0.29389054
0.21781063 -0.28877935 0.26213235 1.3728735 1.5296147 -0.16257347 1.0532302 0.23022556
00000000: 31d7 203f a655 453f 771c 6bbe 7984 ac3f
00000010: 8bd1 e63e f626 d03f 3a22 793e d278 96be
00000020: c009 5f3e e3da 93be 3636 863e 52ba af3f
00000030: 6aca c33f a979 26be 3fd0 863f 40c0 6b3e

2.weight f4 [3, 16]
2.6098123 0.4526354 -0.24747711 -0.082665764 -1.2949201 1.5732298 0.48779646 0.09746382
0.99982905 -0.021711202 -0.21032104 -0.086729206 -1.8024517 -0.24646682 -1.3911766 -0.94542557
-1.4340132 0.378004 0.20734796 1.2620281 -1.5453722 -2.2250974 -0.22699875 0.07584934
-0.50197744 -0.17468664 0.38296157 1.224669 1.590697 0.10471417 0.53313845 -0.8118907
-1.1013588 -1.2055361 0.13264453 -1.525171 2.6511652 0.6485713 0.17908223 -0.18068899
-0.30438545 0.06194824 -0.1721056 -1.5749087 0.20833455 0.2423473 0.8433583 1.7454892
00000000: 2a07 2740 d4bf e73e a46a 7dbe ab4c a9bd
00000010: f1bf a5bf 985f c93f 75c0 f93e 1c9b c73d
00000020: ccf4 7f3f b1db b1bc 665e 57be 159f b1bd
00000030: bdb6 e6bf cc61 7cbe 1312 b2bf 6907 72bf
00000040: bf8d b7bf be89 c13e 0653 543e 238a a13f
00000050: c2ce c5bf ff67 0ec0 5c72 68be e656 9b3d
00000060: 9881 00bf 0ee1 32be 8a13 c43e f4c1 9c3f
00000070: f69b cb3f 6274 d63d c37b 083f 12d8 4fbf
00000080: 53f9 8cbf 024f 9abf f8d3 073e ce38 c3bf
00000090: b1ac 2940 c508 263f 5561 373e 8906 39be
000000a0: 69d8 9bbe 70bd 7d3d 733c 30be 9c96 c9bf
000000b0: a755 553e e429 783e 54e6 573f 316c df3f

2.bias f4 [3]
-0.015691716 0.18362683 -0.11200985
00000000: ea8b 80bc ac08 3c3e 6c65 e5bd
