checkpoint/circle_net_c6_sigmoid_30.pt (torch, 2373 bytes, 4 tensors)

0.weight f4 [16, 2]
0	0x4053e594	3.3108873
1	0x40029e72	2.0409207
2	0xbd316b22	-0.04331506
3	0x408dde26	4.4333677
4	0xc01af904	-2.4214487
5	0x3fe2f407	1.7730721
6	0xbfd4e9a7	-1.6633805
7	0x3ff7efc0	1.9370041
8	0x401e114b	2.4698055
9	0xc00f11dd	-2.2354653
10	0x4038880a	2.8833032
11	0x3f08618b	0.5327384
12	0x40205edc	2.5057898
13	0x3ff1eaa3	1.889973
14	0x4026a816	2.6040092
15	0xbcee2eb8	-0.029075012
16	0x40351853	2.8296096
17	0x3fcf897e	1.6213834
18	0xc049a993	-3.150975
19	0x3fdfcf70	1.748518
20	0xbfbb703a	-1.4643624
21	0xbfccace8	-1.5990267
22	0xc025a972	-2.5884671
23	0x3ff6da4d	1.928537
24	0xc04f9645	-3.2435467
25	0xc000d065	-2.0127194
26	0xc038acd0	-2.8855476
27	0xbfde8675	-1.7384783
28	0xbcf0e650	-0.029406697
29	0xc0be4d62	-5.946946
30	0x404fb3af	3.245342
31	0xc0068e7e	-2.102447

0.bias f4 [16]
0	0x3caf39be	0.021389838
1	0x3c0c9b51	0.008581952
2	0xbe86e041	-0.26342967
3	0x3e45c25b	0.19312422
4	0xbe1e44d8	-0.1545595
5	0xbe4126fa	-0.18862525
6	0x3bbe8e02	0.0058152685
7	0xbe5bc1bb	-0.21460621
8	0xbc29cd91	-0.010363952
9	0xbc8e4a98	-0.017369553
10	0x3e6dbb56	0.23215994
11	0x3e5bf590	0.21480393
12	0x3e16f969	0.1474358
13	0x3d1ea0e0	0.03872764
14	0x3be511b7	0.006990637
15	0x3dc6d1cd	0.09707985

2.weight f4 [6, 16]
0	0x3fec7f73	1.8476394
1	0x3fccd81a	1.6003449
2	0xbfa1749f	-1.2613715
3	0xbeac2a23	-0.33625898
4	0x3e3fc454	0.18727237
5	0x4005059e	2.0784678
6	0x3feb6a40	1.83918
7	0x3feca917	1.8489102
8	0x3fe01283	1.7505649
9	0xbfec2378	-1.8448324
10	0xbfac1447	-1.3443688
11	0xbf5834ae	-0.8445538
12	0xc00bd286	-2.1847243
13	0xbff4d68b	-1.9127973
14	0xc0346090	-2.8183937
15	0x3fa3069d	1.2736393
16	0x3ffe6498	1.9874449
17	0x3fce7521	1.6129495
18	0x3fd7c582	1.685715
19	0x3fa598ad	1.2937218
20	0xc0210d18	-2.5164242
21	0x3e3609b2	0.17777136
22	0x3fd6f99f	1.6794928
23	0xbe43b7ef	-0.19113134
24	0x3fb8e1ab	1.4443868
25	0x3faa29e5	1.3294035
26	0xbfa564d1	-1.2921392
27	0x3fc51a7c	1.5398707
28	0xbffad198	-1.9595213
29	0xbfbf2592	-1.493334
30	0xbff1dd7b	-1.8895715
31	0xc0150e87	-2.3290117
32	0xbfa70ab5	-1.3050143
33	0x402067bf	2.5063322
34	0x3fd0c993	1.6311516
35	0x3fb4d448	1.4127283
36	0xbfedfc08	-1.8592539
37	0xbfe1c31b	-1.7637666
38	0xbf47d67b	-0.78061646
39	0xbfc503e4	-1.5391812
40	0xbfbe2e69	-1.4857913
41	0x3fcfc73a	1.6232674
42	0x3edda460	0.4328947
43	0x3fb0b594	1.3805413
44	0x3fd594a6	1.6685989
45	0x3fa2a183	1.270554
46	0xc04dcd48	-3.2156544
47	0xc0045bbc	-2.068099
48	0xbfeab6fb	-1.8337091
49	0xbfd89eca	-1.6923459
50	0x3f1f3ebf	0.6220512
51	0x3ec40919	0.3828819
52	0xbf40aded	-0.7526539
53	0xbffa8228	-1.957097
54	0xbfefb763	-1.872784
55	0xbfe543af	-1.791128
56	0xbfe5b44d	-1.7945648
57	0x3fd13b44	1.6346211
58	0x3f8cfdb7	1.1014928
59	0x3f8ad584	1.084641
60	0x3fc9cbfd	1.5765377
61	0x3fd22606	1.6417854
62	0x404ce374	3.2013826
63	0xbf961848	-1.172616
64	0xbfe40422	-1.7813761
65	0xc00013c7	-2.001207
66	0xbfc17f97	-1.5117062
67	0xbfcb5fc4	-1.58886
68	0x402ae0e8	2.6699772
69	0xbed89c60	-0.42306805
70	0xbfc9be36	-1.5761173
71	0xbe051dc2	-0.12999633
72	0xbf930ec1	-1.1488878
73	0xbfc5311a	-1.540561
74	0x3f9e634e	1.2374055
75	0xbffa3834	-1.9548402
76	0x40008a46	2.0084395
77	0x3fd48085	1.6601721
78	0x3ffd9716	1.9811733
79	0x401cae1e	2.4481273
80	0x3fd668f0	1.6750774
81	0xc0312800	-2.7680664
82	0xbf8e36d0	-1.1110477
83	0xbfe0ee58	-1.7572737
84	0x3fe211e9	1.7661716
85	0x3ff32e5a	1.899852
86	0x3f70f604	0.9412539
87	0x3faf2037	1.3681706
88	0x3f9d077c	1.2267909
89	0xbfeca1e6	-1.8486907
90	0xbe95d472	-0.29263645
91	0xc0004696	-2.0043082
92	0xbfb3f1e0	-1.4058189
93	0xbfc9ba2e	-1.5759943
94	0x4044e15e	3.0762553
95	0x3fc051fb	1.5025018

2.bias f4 [6]
0	0xbe83a194	-0.25709212
1	0xbe1bf40f	-0.1522982
2	0x3e64c532	0.22340849
3	0x3eb71037	0.35754558
4	0x3f2fd17e	0.68679035
5	0xbefa51db	-0.48890576
