checkpoint/deep_circle_net_c3_relu_30.pt (torch, 7435 bytes, 11 tensors)

0.weight f4 [16, 2]
000000 0d 46 0b 40 92 4e 14 40 f0 02 87 bd 27 d1 d3 3e
       2.1761506 2.3172956 -0.06592357 0.41370508
000010 df a5 1e be b0 1c 12 3e 8b 28 88 bf a5 e3 30 3e
       -0.15492962 0.14268756 -1.0637373 0.1727434
000020 c8 b1 69 3f 06 4d 88 bf 49 39 d1 3f 66 97 d6 3c
       0.912869 -1.0648506 1.6345607 0.02619524
000030 f5 2f 88 3f db 0d 54 3f ea 60 c4 3e 85 43 23 be
       1.0639635 0.8283364 0.3835519 -0.15943725
000040 79 ae 9d 3f 05 70 69 3f b8 2d b7 bf 77 64 38 be
       1.231887 0.91186553 -1.4310827 -0.18007074
000050 65 24 b7 bf d2 65 f2 be a5 8d 2d bf 1a 35 a6 3d
       -1.4307982 -0.47343308 -0.6779426 0.08115597
000060 13 80 c5 bf 12 d2 33 bf cd ac aa bd 97 eb 0b bf
       -1.542971 -0.70242417 -0.083337404 -0.54656357
000070 68 1c 2f 3e 4c a1 70 bf a0 24 81 3f ec 16 9b bf
       0.1710068 -0.9399612 1.0089302 -1.211637

0.bias f4 [16]
000000 39 84 04 bf 85 ea f6 bd 77 1c 6b be da af 7e be
       -0.51764256 -0.1205645 -0.22960077 -0.2487177
000010 a7 9d 97 3e de 8c 5c 3f cb 29 16 be ae 20 4e be
       0.29612467 0.86152446 -0.1466438 -0.20129654
000020 b7 67 13 be ef e0 d4 be e0 72 86 bd 18 4a ad 3d
       -0.14395033 -0.4157786 -0.065648794 0.08461398
000030 15 ce 9f 3d 14 09 6b be 70 80 e0 3e 8f 18 b9 3e
       0.07802979 -0.22952682 0.4384799 0.3615155

2.0.weight f4 [32, 16]
000000 71 28 01 3f b4 7b f3 bd a4 6a 7d be 21 9f fc bd
       0.50452334 -0.11888829 -0.24747711 -0.12335039
000010 9b 8d 0a bf 8b ba 71 3d ad e6 3d 3e 41 8b 72 3d
       -0.5412232 0.059015792 0.18545027 0.059214834
000020 67 8a 7a 3e af a4 09 be 7c e3 b8 3d 62 5c 21 be
       0.24466859 -0.13441728 0.09027764 -0.15757897
000030 5e 83 25 be f4 44 13 be 5e 58 16 be 24 f4 eb be
       -0.16163394 -0.14381772 -0.14682147 -0.46084702
000040 cd 4f f3 3d fc 84 84 bd 06 53 54 3e 99 4c 2d be
       0.11880455 -0.06470677 0.20734796 -0.16923751
000050 d2 d1 94 bd 47 66 b3 bd 05 f9 73 3e c3 51 b9 3d
       -0.072665825 -0.08759742 0.23825462 0.09048798
000060 10 41 82 3e f6 0b 5f be f7 74 84 be ca 65 6a be
       0.25440264 -0.21781906 -0.25870487 -0.22890392
000070 96 e4 31 be 99 74 f2 3d 2c e5 19 3e 96 6a 93 3e
       -0.17372355 0.118386455 0.15028828 0.28792256
000080 74 34 04 be d7 85 2e be f8 d3 07 3e 96 91 d7 bd
       -0.12910634 -0.17043243 0.13264453 -0.10525815
000090 1a 22 12 3e 6e 2e 74 bd 9a 71 12 3e 60 e7 46 be
       0.14270821 -0.05961459 0.14301148 -0.194242
0000a0 ba 30 01 be 8c 8f 93 3d 70 ee 12 3d 4f 4d 96 bd
       -0.12616244 0.07205114 0.035871923 -0.07338964
0000b0 4e a9 fe 3d d8 57 29 3e 9a cf 4e be ce b0 13 be
       0.12434636 0.16537416 -0.20196381 -0.14422914
0000c0 39 50 85 3e 60 02 ac bd 2c 83 b5 bd 48 b4 77 be
       0.26037768 -0.083988905 -0.0886291 -0.24189866
0000d0 d8 ad 58 be 86 07 7c 3c 26 e2 fb bc 19 df 43 be
       -0.21160066 0.015382653 -0.030747484 -0.19128074
0000e0 e5 ca 2a 3c 6e de 2e be 86 30 59 be db 76 02 be
       0.01042435 -0.17077038 -0.21209916 -0.12740652
0000f0 0f c2 60 be 44 01 23 be 63 63 43 3e ec 51 e6 bc
       -0.21949027 -0.15918452 0.19080882 -0.028115235
000100 1c c7 9d 3d 66 c4 6e be 54 22 28 be 14 6c aa bd
       0.07703993 -0.23317108 -0.16419345 -0.083213955
000110 c0 1f 20 3d 86 42 61 be 64 9b dc bd 58 42 19 be
       0.03909278 -0.21998033 -0.10771826 -0.14966714
000120 00 9e 35 3a 50 84 be bd f0 ea 8d bc 24 79 2d be
       0.0006928146 -0.0930258 -0.017323941 -0.16940743
000130 98 b7 2f be d2 59 15 be 9c 41 af bd 50 0e 4a be
       -0.17159879 -0.14585045 -0.08557436 -0.19732022
000140 3d b2 33 3f f0 0b 41 3d f6 42 5c 3e d9 63 cf 3d
       0.70193845 0.047130525 0.21509919 0.10126466
000150 f6 bd fe be f0 e9 2a 3e 0f 7e b3 3d db 71 0d be
       -0.49754304 0.16690803 0.08764278 -0.13812964
000160 3b 3c b6 bb 1e f2 b3 be 17 9b cc bd 32 69 eb 3a
       -0.0055613793 -0.35145658 -0.099905185 0.0017960428
000170 57 69 39 be 33 bf 57 be 04 2d a2 bd 3e 31 00 bf
       -0.1810659 -0.2106903 -0.07918742 -0.5007514
000180 57 61 6d be 37 c4 cf 3d 14 29 04 3e 4f cf b1 3e
       -0.23181663 0.10144847 0.12906295 0.34728476
000190 9d bf 9a 3e b0 1b 29 be 40 af 09 bd 4b 48 d5 bd
       0.30224314 -0.16514468 -0.033614397 -0.104141794
0001a0 9c 69 23 be 96 c7 8e bd 7d 64 96 3e 76 d9 95 bd
       -0.15958256 -0.06971662 0.2937354 -0.07316868
0001b0 16 23 7b 3e d4 54 4a 3d 60 5b 90 3d ef 12 7e bd
       0.24525103 0.049397305 0.070486784 -0.062029775
0001c0 c4 f7 5e 3e 64 d3 60 3d 38 ba 03 3d ea 99 61 be
       0.21774203 0.054889098 0.032160014 -0.2203137
0001d0 c3 84 c8 3d e6 e8 50 bd fc 55 f5 bd 3c a9 5a 3e
       0.09790947 -0.05100336 -0.11979291 0.2135362
0001e0 5d 80 4c 3d 86 a3 0d be 52 92 01 be da 16 50 bc
       0.049927104 -0.1383191 -0.12653473 -0.012700761
0001f0 c4 f0 0e 3e 54 d5 82 bd 91 69 15 be ff 9a bf bd
       0.13959032 -0.06388345 -0.14591052 -0.09355735
000200 69 40 3f be 88 98 b6 3d 80 27 46 3e 3c 02 71 be
       -0.18676914 0.08915812 0.19351006 -0.23536009
000210 08 c8 6d 3d 28 3b 04 3e 73 ac 39 3d 68 56 b6 bd
       0.058052093 0.12913191 0.045330476 -0.089031994
000220 57 9d 05 3e 08 88 06 3e 64 73 bf 3d 50 f0 33 bd
       0.13048302 0.1313783 0.09348181 -0.04393035
000230 08 94 87 bd c6 18 db 3c b6 ec 34 bd dd 99 98 bd
       -0.066200316 0.026745211 -0.044171058 -0.07451222
000240 8b 2b 56 3d b2 e9 54 3e 20 bf ca bc a1 61 07 bd
       0.05228762 0.20792273 -0.024749339 -0.03305209
000250 80 14 6f 3b 7f c1 a6 bd bf 33 4f 3c c8 7a 8f 3d
       0.0036480725 -0.08142375 0.012646615 0.070058405
000260 b9 e7 93 be 69 7a 57 bd 44 43 8c 3e f8 7f fb 3d
       -0.28887728 -0.052606974 0.2739507 0.122802675
000270 f6 50 a7 3d 08 58 1a be 34 c0 1a be fa 50 65 be
       0.08169739 -0.15072644 -0.15112382 -0.22394171
000280 8c e4 a6 bd 90 e7 ac 3d 2c 3b 23 3e 98 63 ec 3d
       -0.081490606 0.084426045 0.15940541 0.115424335
000290 28 4a 62 be e4 f2 19 be b0 9a 21 bd 38 a4 77 3e
       -0.22098601 -0.15034062 -0.039454162 0.24183738
0002a0 18 21 14 3d d0 97 84 bd 7c d2 d3 3d e8 02 c3 bd
       0.036164373 -0.064742684 0.10342881 -0.09522039
0002b0 8c b2 25 be e4 d9 3a 3e ac ce e8 bd 28 47 4d bd
       -0.16181391 0.18247181 -0.113675445 -0.050116688
0002c0 51 6d 80 be d1 42 26 3e 58 f4 41 3e 51 14 a8 3d
       -0.25083402 0.16236426 0.18940866 0.08207
0002d0 90 80 32 be 71 00 7d be f6 ea 4f be 36 e6 3e 3e
       -0.17431855 -0.247072 -0.20304474 0.18642506
0002e0 6c d0 f5 3d c3 73 55 3e 5c 69 ff 3d 79 cd 57 3d
       0.12002644 0.20844941 0.124712676 0.05268619
0002f0 2e e6 33 bc 86 b0 42 be 10 85 5c be 02 73 6f be
       -0.010980172 -0.19012651 -0.21535134 -0.23383716
000300 e4 97 d1 3d 28 60 fb bd 28 15 4e bd 50 54 13 be
       0.10234049 -0.122742 -0.050313145 -0.14387631
000310 d0 98 3a bd 86 2e 34 be 40 46 27 be 00 d6 a9 3d
       -0.04555589 -0.17595872 -0.16335392 0.082927704
000320 20 2a 98 bd 34 0a 1e 3e 0c 41 a4 bd 10 cb 3b be
       -0.0742991 0.1543358 -0.08020219 -0.18339181
000330 68 ac 34 bd d0 30 f8 bd 60 a4 9c bd fc b5 73 be
       -0.044109732 -0.12118685 -0.076485395 -0.2379989
000340 a1 ed f5 3e d4 49 11 be 8e ab 00 3e aa c1 97 3d
       0.4803286 -0.1418832 0.12565443 0.07409985
000350 18 46 05 bd 46 2b 49 be 47 35 98 3e 82 4e 18 be
       -0.03253755 -0.19645414 0.29728147 -0.14873698
000360 e4 dc 7e 3e 78 4a 12 3e 92 67 46 be d3 a7 f8 bc
       0.2488895 0.1428622 -0.19375446 -0.030353462
000370 97 15 9b be 9c 61 58 be 6e 23 9c bd 52 1f f6 be
       -0.3028991 -0.21130985 -0.07623945 -0.4807077
000380 6b 9f 2f 3f 74 a3 72 3e d0 19 72 3e 6f 11 c3 bd
       0.6860263 0.23695165 0.23642659 -0.095248096
000390 94 73 1d bf 88 c1 dc bc ee 83 a2 3e e9 ad 9c be
       -0.61504483 -0.026947752 0.3174128 -0.30601433
0003a0 ef 88 3b 3e 88 98 98 be 58 79 7e be 55 f2 0b be
       0.18313955 -0.29803872 -0.24850976 -0.13666661
0003b0 bd 4d e7 be 2d c8 a5 bd 14 4c 13 bf 6e f5 7a be
       -0.45176497 -0.08094821 -0.5753796 -0.24507686
0003c0 e0 9c 56 3e 48 a2 20 bd 00 3b e9 bc 18 f5 d0 bd
       0.2095828 -0.039217263 -0.028470516 -0.10202998
0003d0 20 2f 67 be fe 1f 79 be 04 4a be 3d 4a 8e 0c be
       -0.2257657 -0.2432861 0.09291461 -0.13726154
0003e0 96 93 24 be a0 ca 9f bc 70 80 aa bd 84 a4 a5 bd
       -0.16071925 -0.019505799 -0.08325279 -0.080880195
0003f0 00 9c 03 3c 00 34 59 bd b8 49 b0 bd 0c 26 f5 bd
       0.008032799 -0.053028107 -0.08607811 -0.119701475

2.0.bias f4 [32]
000000 7b b6 2b bc 23 4e 7a 3e 53 c6 d2 bb 4b 56 78 be
       -0.010480518 0.2444387 -0.0064323335 -0.24251668
000010 4a 97 33 be c6 59 64 be 9c d1 a2 bd 19 90 07 be
       -0.17538181 -0.22299871 -0.07950136 -0.13238563
000020 52 ac 6b be f7 9b 53 be 56 f9 18 be e0 11 83 be
       -0.23014954 -0.20664965 -0.14938864 -0.25599575
000030 d0 22 1d be 60 59 41 bd d5 46 92 bc 0c 4d 98 bd
       -0.15345311 -0.047204375 -0.017856041 -0.074365705
000040 62 c6 e8 3c 0f 62 7c 3d c2 57 ed bd d2 ff 27 be
       0.028414909 0.061616953 -0.11589004 -0.16406181
000050 49 ae 0a 3e a0 0d 5f be 33 4e 94 3b d2 28 6b 3e
       0.13543047 -0.21782541 0.0045259236 0.2296479
000060 03 aa 89 3d cf cb 7e 3d 83 39 5c be 99 36 e7 bd
       0.0672188 0.062206086 -0.21506314 -0.112897106
000070 d4 4c 85 3c 03 57 9b 3d 21 12 85 3d 8b b7 11 3e
       0.016271986 0.075849555 0.064975984 0.14230172

3.0.weight f4 [1, 32]
000000 10 11 10 bf 37 a7 97 3e 1c 23 b4 bd 28 fe 1c be
       -0.56276035 0.29619762 -0.08795759 -0.15331328
000010 fd ed 67 bc 85 33 23 bf 26 1a 95 3e 68 96 85 3c
       -0.014155862 -0.6375049 0.29121512 0.01630707
000020 df 1f c3 bd b1 8a 2b 3e 5f 52 2b be b5 38 89 bd
       -0.09527563 0.16752125 -0.16730641 -0.06700269
000030 57 10 0d bd 98 d1 fb be 67 a3 50 bf a5 5d ec bc
       -0.03443941 -0.49183345 -0.8149933 -0.028853247
000040 4c d6 ab 3e d0 c5 ca 3f e8 2d 27 3e 9f be ed be
       0.33561933 1.5841618 0.16326106 -0.46434495
000050 7f 7e e4 be 6e f9 1d 3e 4e 5c 09 3f 7a 84 8c bc
       -0.4462776 0.15427181 0.5365647 -0.017153013
000060 c6 fd a5 3e 3f 30 6d be 28 72 f1 be 41 1f 85 3f
       0.32420176 -0.23162936 -0.47157407 1.0400163
000070 22 de 36 bd 09 6f 79 3d cc 41 2a be 56 46 db 3c
       -0.044645436 0.060896907 -0.16626662 0.026766937

4.0.weight f4 [16, 1]
000000 4e 04 1f bf cf fd bf 3c 93 d9 c1 3f d4 69 7a bf
       -0.62115943 0.023436455 1.5144523 -0.9781773
000010 b0 32 99 3e 69 7f 5b bf d4 e1 f9 be bb a2 84 3f
       0.29921484 -0.8574129 -0.48805106 1.0362161
000020 b0 4d aa 3f 66 6d 00 bf 1c 36 d2 be 9c 8e 84 bf
       1.3304958 -0.5016693 -0.41056907 -1.0356021
000030 55 6d 40 bf 2b 1c 73 bf fd 1e 0c bf 2e 17 f8 3e
       -0.7516683 -0.94964856 -0.54734784 0.48455185

4.0.bias f4 [16]
000000 16 d7 6f bf 03 82 97 3f c4 34 7a 3f 32 9c 7a bf
       -0.9368757 1.1836551 0.97736764 -0.97894585
000010 80 e9 f3 be 02 f3 85 3f 00 64 52 be 00 ea 1e b8
       -0.47639084 1.0464785 -0.2054596 -3.7888065e-05
000020 b0 e8 98 be 0a ad 8b 3f 82 1a 0f bf 37 9f 96 3f
       -0.29865026 1.0912182 -0.5589982 1.1767339
000030 89 c2 5f 3f 6c 64 8b 3f 6f de 86 3f 02 7d 1b be
       0.8740621 1.0890021 1.0536631 -0.15184405

5.0.weight f4 [8, 16]
000000 7c c0 11 be d2 a8 31 bc 3f 84 4c 3f e2 f2 3d be
       -0.14233583 -0.010843473 0.7988929 -0.18549684
000010 be 85 6b 3d 06 d6 2c bf aa 38 06 3e 52 be e7 3e
       0.057500593 -0.67514074 0.13107553 0.4526239
000020 ec 1c db 3e 70 86 6d bd 00 6c 93 39 96 a2 c9 be
       0.42795503 -0.057989538 0.0002811849 -0.39381856
000030 d4 b7 0b bf fd 6c ed be d9 4c 29 bd 96 a1 c2 3e
       -0.54577374 -0.46372214 -0.041333053 0.38013905
000040 7a 67 02 3e 85 02 77 be b7 4f cc 3d a8 59 64 bd
       0.12734786 -0.24122055 0.09976142 -0.055749565
000050 8a 0c 5b bd 4e ae 68 be 38 31 21 bd 28 44 14 3e
       -0.053478755 -0.22722742 -0.03935358 0.14479125
000060 4b a7 03 3c 38 94 3c be 8c 99 9d 3d ca cf ba bd
       0.008035491 -0.18415916 0.07695302 -0.09121664
000070 fa b9 69 3e 46 32 5e be f5 f3 f0 bd 14 b4 7d be
       0.2282485 -0.21698865 -0.11765281 -0.24775726
000080 1c a4 c9 bd a0 64 b1 3e be d5 a0 3f 20 fa 2b 3d
       -0.098457545 0.34647083 1.2565229 0.041986585
000090 97 88 7b 3e 1e 98 9f be 66 d9 13 3e af fb 36 3f
       0.24563824 -0.31170744 0.144384 0.7147779
0000a0 62 15 39 3f e2 57 24 be 24 5d 6b 3e b9 bf a2 be
       0.7229825 -0.1604915 0.22984749 -0.31786898
0000b0 ec 33 cd be ba d9 f8 be f0 5d 6a be ba 62 68 3e
       -0.40078676 -0.48603612 -0.22887397 0.22693911
0000c0 28 80 4f be ad 39 18 3e 38 b4 8b 3e d2 69 5e be
       -0.20263731 0.14865752 0.27285933 -0.21720055
0000d0 6c 64 8b 3d d5 14 ad bd 04 e4 e9 3d fa a8 80 3e
       0.06806263 -0.08451239 0.11420444 0.2512892
0000e0 33 5b 33 be 94 35 5d 3e 3e b1 56 3e 9b 5d fe 3b
       -0.17515258 0.2160247 0.2096605 0.0077626235
0000f0 de 69 8c be 22 8b 23 be 49 46 b4 bd 70 26 22 bd
       -0.2742452 -0.15971044 -0.08802468 -0.039587438
000100 44 5d 10 3e b8 fa 2e 3f 93 96 46 3e 80 c1 bf bd
       0.14098078 0.68351316 0.19393377 -0.09363079
000110 34 4e aa 3d 62 99 58 3f ac 24 55 be 4e 60 0f bf
       0.08315697 0.84609044 -0.2081477 -0.56006324
000120 2b ea 13 bf 6f 9c 60 3f 80 03 71 be b3 e9 43 3f
       -0.57779187 0.877387 -0.23536491 0.7652847
000130 59 70 46 3f 7e 54 66 3f e3 7e 64 3f f3 f9 ac be
       0.7751518 0.89972675 0.89256114 -0.33784446
000140 c8 5d 3b be 51 65 fc 3d 83 7b ee 3e bc 2c 19 3e
       -0.18297493 0.12324012 0.46578607 0.14958471
000150 2e 40 20 3d f4 91 a1 bd f8 f9 72 3e 92 ed e8 ba
       0.039123707 -0.078891665 0.23728168 -0.0017770997
000160 47 18 43 3a c7 6c b4 3d 54 2a 2f be eb 33 bd be
       0.0007442277 0.0880981 -0.1710599 -0.36953673
000170 9d 4c 78 3d 36 1e bb bd bd b8 a8 bb 24 8f 8b bd
       0.06061994 -0.09136622 -0.0051489756 -0.06814411
000180 80 1b 62 bb b2 4c 6a 3e 06 a8 19 be 80 d0 00 3b
       -0.0034501255 0.2288082 -0.15005502 0.0019655526
000190 c8 81 f3 3d 30 bb 30 be 0c 9f 78 3e f4 cc ff bd
       0.11889988 -0.17258906 0.24279422 -0.124902636
0001a0 38 e6 75 bd 30 88 8a bd 1e d3 26 be 28 34 7b be
       -0.060034007 -0.06764257 -0.16291472 -0.24531615
0001b0 94 58 10 3e 70 06 88 3d 12 c5 6f be ba c4 24 be
       0.1409629 0.06641853 -0.2341502 -0.1609067
0001c0 b0 05 7d 3e 3a 52 42 3e 47 83 1f 3f 10 2a 19 be
       0.24709201 0.1897668 0.6230969 -0.14957452
0001d0 78 da df bd 39 34 8d be e0 44 3b bd 05 5f d9 3d
       -0.109303415 -0.27578905 -0.04571998 0.10613827
0001e0 39 f7 94 3e 9b b1 10 bd f0 a8 01 bd 77 26 97 be
       0.29094866 -0.035325628 -0.031655252 -0.29521534
0001f0 f7 b1 91 be ad 53 32 be 17 c6 1c 3d 1a 8f 3e bd
       -0.2845609 -0.17414732 0.03827485 -0.04652319

5.0.bias f4 [8]
000000 e4 e6 14 be 28 ad 71 3d 41 b8 bd 3e 58 68 b3 bd
       -0.14541203 0.059003025 0.37054637 -0.08760136
000010 02 e0 4f 3f 94 59 f7 bd be fd 2c 3e 1d 58 7a 3e
       0.81201184 -0.120776325 0.1689367 0.24447675

6.weight f4 [3, 8]
000000 aa 95 88 bf e6 a5 68 3e 8a a3 c0 bf 61 06 be be
       -1.0670674 0.22719535 -1.5049908 -0.37114242
000010 f1 30 ba 3f 03 ab d5 be ee d6 b0 3e 7d 54 13 bf
       1.4546186 -0.41732034 0.34538978 -0.57550794
000020 01 db 77 3f a9 d6 9f be ae 70 80 3f 96 ec ac bc
       0.9681855 -0.3121846 1.0034387 -0.021108907
000030 04 fc f7 bf 6b 0f 02 3e d7 64 2f 3e b1 cc 28 3f
       -1.9373784 0.12701194 0.17128311 0.65937334
000040 ae ce 8b be 4d f6 34 be 13 5f e5 3e 4b c8 3a 3e
       -0.27306122 -0.17672081 0.44799098 0.18240468
000050 f0 e2 94 3e 14 73 98 3e ee 2f a4 bd f1 f8 b1 3e
       0.2907939 0.29775298 -0.08016954 0.3476024

6.bias f4 [3]
000000 a6 c4 07 3f 8a ba f3 be cc 28 bb 3e
       0.53034437 -0.47603256 0.36554563
