checkpoint/deep_circle_net_c3_relu_05.pt (torch, 7435 bytes, 11 tensors)

0.weight f4 [16, 2]
00000000: 0ab4 553f 34fd 953f 9c1a 7cbe 7373 183f
00000010: dfa5 1ebe b01c 123e d3e5 1bbf e359 fe3e
00000020: 2541 3c3f 859d 29bf cc0b 663f 9886 5e3e
00000030: 203d 0b3f fd3a b13e a6fe c03e 0cdb c3bd
00000040: 3be6 183f bd2e d33e 5a96 2bbf 03ee 533d
00000050: b42f 2bbf b857 2dbe ab4c fbbe e2e6 d63e
00000060: 487b 40bf e19a cdbe 295b 12be 28f4 f4be
00000070: 6d2e 173d de5d 3ebf 7307 4f3f 5da9 3dbf
0.8347784 1.1717896 -0.24619526 0.5955116 -0.15492962 0.14268756 -0.6089756 0.49677953
0.735369 -0.6625598 0.8986175 0.21731031 0.54390144 0.34615317 0.3769428 -0.09563264
0.59726304 0.41246596 -0.67026293 0.051740658 -0.66869664 -0.16927993 -0.4908193 0.41973025
-0.7518811 -0.40157226 -0.14292587 -0.47842526 0.03690951 -0.7436198 0.8087074 -0.7408655

0.bias f4 [16]
00000000: 411d 3a3e db9b 043e 771c 6bbe e090 743e
00000010: 17ff 803e a7e3 333f e42a 853d 64bc 51be
00000020: 2e98 383d 5f54 4bbe cfa3 703e bc4c 163f
00000030: 7424 ab3e a0f1 84be ab97 ef3e 1875 a33e
0.18175222 0.12950079 -0.22960077 0.2388339 0.25194618 0.70269245 0.06502321 -0.20482022
0.045067005 -0.19856404 0.23499988 0.5871084 0.3342625 -0.25965595 0.467954 0.31925273

2.0.weight f4 [32, 16]
00000000: 22b8 963e 4ea1 e4bd a46a 7dbe 6f77 bfbd
00000010: 60ee bebe 6f01 053e d9ee bb3d 9f69 a93d
00000020: 5d31 0e3e dd6c 9cbd 2088 3e3e 045c efbd
00000030: 4963 03bd f444 13be 38f7 dabb af5c 8dbe
00000040: 75e6 1b3e 46db 57bd 0653 543e e60d 18be
00000050: efb3 e0bd 7877 96bd c71e 873e cbe6 c23d
00000060: 6669 913e 675c 53be 2b84 82be 163d 50be
00000070: 1b34 47be 9173 cd3d 987f b63d a195 7e3e
00000080: 7434 04be d785 2ebe f8d3 073e 075c d4bd
00000090: 2475 1a3e 3b25 74bd 9a71 123e 60e7 46be
000000a0: ba30 01be d94f 9b3d 87a9 453d d3b2 8abd
000000b0: d910 113e a9fe 2c3e 0e25 3fbe 48d0 09be
000000c0: 2ba5 723e 6502 acbd 2c83 b5bd 48b4 77be
000000d0: f522 29be 6d16 4c3d 95c5 0bbd 285f 3dbe
000000e0: 0058 d33b 6ede 2ebe 8630 59be 8b26 06be
000000f0: 0fc2 60be 4401 23be 49dd 6b3e cbef ba3c
00000100: 1cc7 9d3d 66c4 6ebe 5422 28be 146c aabd
00000110: c01f 203d 8642 61be 649b dcbd 5842 19be
00000120: 009e 353a 5084 bebd f0ea 8dbc 2479 2dbe
00000130: 98b7 2fbe d259 15be 9c41 afbd 500e 4abe
00000140: 927c de3e 81c5 7b3b f642 5c3e 8bb9 843d
00000150: 7d5c 8dbe 6615 8b3e be15 dcbb e484 dabd
00000160: 6caa e2bd 0610 9cbe ff46 f0bc ca4f 1dbd
00000170: 4ff8 8fbd 33bf 57be 3d4f c63d 3e7b 83be
00000180: dafe 16be 32d5 c93d 1429 043e fc7f a23e
00000190: 9e72 8a3e 8feb 4ebe e883 923c ad96 dabd
000001a0: db0d d0bd aeff c7bd c78d 8f3e af3d c1bd
000001b0: 8d53 5a3e d6be 683d e2e7 4c3d 48b5 c8bd
000001c0: a722 653e 64d3 603d 38ba 033d ea99 61be
000001d0: 03f0 d13d a903 2cbd 0e90 eebd 406a 5b3e
000001e0: 9f4f 5c3d 86a3 0dbe 5292 01be e9c6 4fbc
000001f0: c4f0 0e3e 54d5 82bd c320 13be 37f0 b4bd
00000200: 4c40 3fbe 8898 b63d 8027 463e 3c02 71be
00000210: 20d3 6d3d 5c3f 043e 68ae 393d f855 b6bd
00000220: 009e 053e 0888 063e 6473 bf3d 50f0 33bd
00000230: 0894 87bd d018 db3c d0e4 34bd 9893 98bd
00000240: c6ba b53d c444 503e 20bf cabc 0974 3bbd
00000250: 8014 6f3b 715a 86bd 12ee 173d c87a 8f3d
00000260: 96f8 85be a884 8fbd bba0 7a3e 2e2b d33d
00000270: b801 2f3d 0858 1abe 34c0 1abe fa50 65be
00000280: 8ce4 a6bd 90e7 ac3d 2c3b 233e 9863 ec3d
00000290: 284a 62be e4f2 19be b09a 21bd 38a4 773e
000002a0: 1821 143d d097 84bd 7cd2 d33d e802 c3bd
000002b0: 8cb2 25be e4d9 3a3e acce e8bd 2847 4dbd
000002c0: 516d 80be d142 263e 58f4 413e 5114 a83d
000002d0: 9080 32be 7100 7dbe f6ea 4fbe 36e6 3e3e
000002e0: 6cd0 f53d c373 553e 5c69 ff3d 7acd 573d
000002f0: 28e6 33bc 86b0 42be 1085 5cbe 0273 6fbe
00000300: e497 d13d 2860 fbbd 2815 4ebd 5054 13be
00000310: d098 3abd 862e 34be 4046 27be 00d6 a93d
00000320: 202a 98bd 340a 1e3e 0c41 a4bd 10cb 3bbe
00000330: 68ac 34bd d030 f8bd 60a4 9cbd fcb5 73be
00000340: d28a 943e 1d50 12be 8eab 003e 5f83 b63d
00000350: a30e d83d bfea 15be 30c8 5b3e 6da4 04be
00000360: 1a67 1f3e 613e 423e 15df f0bd a5b8 f1bb
00000370: eef1 49be 9c61 58be 0a08 243d 8aa0 a8be
00000380: a2ea b73e f734 693e d019 723e e681 a3bd
00000390: 9e29 c0be 2c41 773d 139e 373e 1390 8bbe
000003a0: a75f e03c 0921 63be b865 00be f658 e4bd
000003b0: bdf8 8ebe 2dc8 a5bd d2f7 bfbe b263 933c
000003c0: e09c 563e 48a2 20bd 003b e9bc 18f5 d0bd
000003d0: 202f 67be fe1f 79be 044a be3d 4a8e 0cbe
000003e0: 9693 24be a0ca 9fbc 7080 aabd 84a4 a5bd
000003f0: 009c 033c 0034 59bd b849 b0bd 0c26 f5bd
0.29437357 -0.11163579 -0.24747711 -0.09348952 -0.3729124 0.12988828 0.09176416 0.08272099
0.13886018 -0.076379515 0.18606615 -0.116874725 -0.032077108 -0.14381772 -0.006682303 -0.27609774
0.15224631 -0.05269935 0.20734796 -0.14849052 -0.109718196 -0.073470056 0.2639067 0.095166765
0.28400725 -0.20640717 -0.2549146 -0.20335802 -0.1945347 0.10031808 0.08911055 0.24861766
-0.12910634 -0.17043243 0.13264453 -0.10369115 0.15083748 -0.05960582 0.14301148 -0.194242
-0.12616244 0.07583589 0.048257377 -0.06772389 0.14166583 0.1689402 -0.18666479 -0.13458359
0.23695819 -0.08398894 -0.0886291 -0.24189866 -0.16517241 0.049826074 -0.034123976 -0.1849333
0.0064496994 -0.17077038 -0.21209916 -0.1310064 -0.21949027 -0.15918452 0.23033632 0.02281942
0.07703993 -0.23317108 -0.16419345 -0.083213955 0.03909278 -0.21998033 -0.10771826 -0.14966714
0.0006928146 -0.0930258 -0.017323941 -0.16940743 -0.17159879 -0.14585045 -0.08557436 -0.19732022
0.43454415 0.0038417282 0.21509919 0.06480702 -0.27609625 0.27164763 -0.006716459 -0.10669878
-0.11067662 -0.30480975 -0.029330729 -0.03840617 -0.07029783 -0.2106903 0.09683082 -0.25679964
-0.14745656 0.09855117 0.12906295 0.3173827 0.2704057 -0.20207046 0.017885163 -0.106732704
-0.10158893 -0.09765564 0.28037855 -0.09435593 0.21320935 0.05682262 0.05002583 -0.09800202
0.223765 0.054889098 0.032160014 -0.2203137 0.10250857 -0.041995678 -0.1164857 0.2142725
0.05378687 -0.1383191 -0.12653473 -0.012681701 0.13959032 -0.06388345 -0.14367966 -0.0883488
-0.18676871 0.08915812 0.19351006 -0.23536009 0.058062673 0.12914795 0.045332342 -0.08903116
0.13048553 0.1313783 0.09348181 -0.04393035 -0.066200316 0.02674523 -0.044163525 -0.07450026
0.08873515 0.20338732 -0.024749339 -0.045764957 0.0036480725 -0.06560219 0.037092276 0.070058405
-0.2616622 -0.07007724 0.24475376 0.1031097 0.04272625 -0.15072644 -0.15112382 -0.22394171
-0.081490606 0.084426045 0.15940541 0.115424335 -0.22098601 -0.15034062 -0.039454162 0.24183738
0.036164373 -0.064742684 0.10342881 -0.09522039 -0.16181391 0.18247181 -0.113675445 -0.050116688
-0.25083402 0.16236426 0.18940866 0.08207 -0.17431855 -0.247072 -0.20304474 0.18642506
0.12002644 0.20844941 0.124712676 0.052686192 -0.0109801665 -0.19012651 -0.21535134 -0.23383716
0.10234049 -0.122742 -0.050313145 -0.14387631 -0.04555589 -0.17595872 -0.16335392 0.082927704
-0.0742991 0.1543358 -0.08020219 -0.18339181 -0.044109732 -0.12118685 -0.076485395 -0.2379989
0.29012161 -0.14288373 0.12565443 0.08911776 0.10549667 -0.1464033 0.21463084 -0.12953348
0.15566674 0.18969108 -0.117612995 -0.0073767477 -0.19721195 -0.21130985 0.04004673 -0.32934982
0.35921198 0.2277411 0.23642659 -0.079837605 -0.3753175 0.060364887 0.17931394 -0.27258357
0.02738936 -0.2218057 -0.12538803 -0.111497805 -0.27924147 -0.08094821 -0.3749376 0.017991874
0.2095828 -0.039217263 -0.028470516 -0.10202998 -0.2257657 -0.2432861 0.09291461 -0.13726154
-0.16071925 -0.019505799 -0.08325279 -0.080880195 0.008032799 -0.053028107 -0.08607811 -0.119701475

2.0.bias f4 [32]
00000000: a2b4 d03d 78b0 873e 29c3 e13b 28ee 67be
00000010: 4a97 33be c085 47be 3a9d 13be 3367 03be
00000020: 54aa 6bbe 53a1 6cbe 56f9 18be e011 83be
00000030: d022 1dbe 7baa f23c baf5 c03d 0c4d 98bd
00000040: 28dc dfbb 7ebb a63d 5464 eabd a1c3 10be
00000050: c254 253e a00d 5fbe 7e95 3a3d 495b 6f3e
00000060: a0a2 a03d 47dc 983d 7f43 70be 1978 a5bd
00000070: 6a4c 853c 63a3 b83d c30a 113e f471 4c3e
0.10190703 0.26501822 0.00688972 -0.22649443 -0.17538181 -0.19484615 -0.14415446 -0.12832336
-0.23014194 -0.23108415 -0.14938864 -0.25599575 -0.15345311 0.029622307 0.094218686 -0.074365705
-0.0068316646 0.0814123 -0.11444917 -0.14137127 0.16145614 -0.21782541 0.045552723 0.23374666
0.07843518 0.074638896 -0.23463248 -0.080795474 0.016271789 0.090155385 0.14164262 0.19965345

3.0.weight f4 [1, 32]
00000000: 3f43 d6be 68ca 933e 908c b4bd 8742 18be
00000010: fded 67bc 857d f9be 7813 923e 7410 8c3c
00000020: a81f c3bd 01ba 073e 5f52 2bbe b538 89bd
00000030: 5710 0dbd d189 afbe 7a5b 18bf a55d ecbc
00000040: 2abf f13e fb60 9d3f abcf f43d 2bc7 babe
00000050: 871f 8abe 6ef9 1d3e dfee ce3e 4541 17bc
00000060: a178 d53e f859 36be 9296 8bbe 495c 563f
00000070: 22de 36bd 4f16 f83d b68a 59be a054 293d
-0.4184818 0.2886536 -0.08815873 -0.14869128 -0.014155862 -0.48728576 0.28530478 0.01709769
-0.09527522 0.13254549 -0.16730641 -0.06700269 -0.03443941 -0.34284833 -0.5951458 -0.028853247
0.4721616 1.2295221 0.11953672 -0.36480078 -0.26977178 0.15427181 0.4041662 -0.00923187
0.41693595 -0.17807758 -0.27263314 0.83734566 -0.044645436 0.1211363 -0.2124432 0.04134047

4.0.weight f4 [16, 1]
00000000: 4e04 1fbf b482 0c3d 0dbc ae3f d469 7abf
00000010: b032 993e 3363 44bf d4e1 f9be 2369 6a3f
00000020: 4850 9b3f ee83 dabe 1c36 d2be 4e94 70bf
00000030: 185f 27bf 8e4c 57bf bf1c ecbe 7798 df3e
-0.62115943 0.034304336 1.3651139 -0.9781773 0.29921484 -0.76713866 -0.48805106 0.91566676
1.2133875 -0.4267878 -0.41056907 -0.93976295 -0.65379477 -0.8410119 -0.46115682 0.4367101

4.0.bias f4 [16]
00000000: 16d7 6fbf a8ac 903f cae2 713f 329c 7abf
00000010: 80e9 f3be c666 763f 0064 52be 5c5d 8db9
00000020: 547d 9dbe 74ef 853f 821a 0fbf 2359 903f
00000030: ac8a 4f3f 6152 833f 29a2 813f e934 01be
-0.9368757 1.130269 0.9448668 -0.97894585 -0.47639084 0.9625057 -0.2054596 -0.00026963174
-0.3075968 1.04637 -0.5589982 1.1277202 0.8107097 1.0259515 1.0127612 -0.1261784

5.0.weight f4 [8, 16]
00000000: 7cc0 11be edaa 313d 28ef 4b3f e2f2 3dbe
00000010: 6c74 6b3d 3bda 19bf aa38 063e 2011 d73e
00000020: 4bd4 bd3e ec99 083c 006c 9339 df7a 9dbe
00000030: c5a3 f7be 5b2d c5be 3bdb c83c 1c47 b73e
00000040: 7a67 023e 1978 77be 843a ca3d a859 64bd
00000050: af0b 5bbd 4eae 68be 3831 21bd 80c9 133e
00000060: d231 f83b a4c5 3cbe 8c99 9d3d cacf babd
00000070: fab9 693e 4632 5ebe 6a3e f1bd 66e3 7dbe
00000080: 1ca4 c9bd 0416 993e 0a8b 8c3f 20fa 2b3d
00000090: 8687 7b3e 5aa3 90be 66d9 133e 991b 223f
000000a0: 73b1 223f e76a 27be 245d 6b3e f09c 8fbe
000000b0: a20c c0be c4db e7be 98b7 68be 4537 493e
000000c0: 2880 4fbe c52b 0e3e bd0c 733e d269 5ebe
000000d0: c364 8b3d fb53 9cbd 04e4 e93d 6511 6e3e
000000e0: 9179 43be 498e 5d3e 3eb1 563e 752a 953c
000000f0: 65ac 88be ccf3 19be b57a b1bd dfd3 36bd
00000100: 445d 103e 12fb 1d3f 522f 7c3e 80c1 bfbd
00000110: 275b aa3d 513b 3a3f ac24 55be fab8 f8be
00000120: 603e f4be fd59 473f 8003 71be 950e 203f
00000130: e4c4 2c3f 41c0 453f 8502 4b3f 4bf5 99be
00000140: c85d 3bbe 0a99 e43d c079 d63e bc2c 193e
00000150: 5841 203d e8fe 87bd f8f9 723e cf2d e0bc
00000160: 26e2 b4bc 23ad b83d 542a 2fbe fb25 b5be
00000170: 7bbe 923d ea2f 9ebd a1e0 e2ba 8be8 9abd
00000180: 801b 62bb b24c 6a3e 06a8 19be 80d0 003b
00000190: c881 f33d 30bb 30be 0c9f 783e f4cc ffbd
000001a0: 38e6 75bd 3088 8abd 1ed3 26be 2834 7bbe
000001b0: 9458 103e 7006 883d 12c5 6fbe bac4 24be
000001c0: b005 7d3e 7df1 273e 5a49 0b3f 102a 19be
000001d0: c6db dfbd 1442 87be e044 3bbd 42a8 883d
000001e0: f802 7e3e d241 21bd f0a8 01bd c660 8fbe
000001f0: b06c 8cbe 35a1 24be d0b4 153d 79f2 7bbd
-0.14233583 0.0433759 0.796618 -0.18549684 0.057484075 -0.6009862 0.13107553 0.42005253
0.3707603 0.008337479 0.0002811849 -0.30757806 -0.48367134 -0.38511166 0.0245186 0.3579644
0.12734786 -0.24166907 0.09874442 -0.055749565 -0.05347794 -0.22722742 -0.03935358 0.14432335
0.0075742984 -0.18434769 0.07695302 -0.09121664 0.2282485 -0.21698865 -0.11779483 -0.24793777
-0.098457545 0.2989961 1.0979931 0.041986585 0.24563417 -0.28249627 0.144384 0.6332336
0.63552016 -0.16349374 0.22984749 -0.2804942 -0.37509638 -0.45284855 -0.22726285 0.1964999
-0.20263731 0.13883884 0.23735328 -0.21720055 0.06806328 -0.076332055 0.11420444 0.23248823
-0.19089343 0.21636309 0.2096605 0.018208722 -0.26694027 -0.15034407 -0.08665983 -0.04463565
0.14098078 0.6171123 0.24627426 -0.09363079 0.08318167 0.7274676 -0.2081477 -0.48578626
-0.47703838 0.77871686 -0.23536491 0.6252225 0.6748793 0.7724648 0.7930072 -0.30069956
-0.18297493 0.111620024 0.41889763 0.14958471 0.039124817 -0.066404164 0.23728168 -0.027365593
-0.022080492 0.09017398 -0.1710599 -0.3538054 0.071652375 -0.07723983 -0.0017309376 -0.07563885
-0.0034501255 0.2288082 -0.15005502 0.0019655526 0.11889988 -0.17258906 0.24279422 -0.124902636
-0.060034007 -0.06764257 -0.16291472 -0.24531615 0.1409629 0.06641853 -0.2341502 -0.1609067
0.24709201 0.16400714 0.544088 -0.14957452 -0.1093059 -0.264176 -0.04571998 0.06672718
0.2480582 -0.03936941 -0.031655252 -0.2800352 -0.27426672 -0.1607712 0.03654939 -0.061510537

5.0.bias f4 [8]
00000000: 791a c9bd cf38 703d acf0 a93e 8deb c3bd
00000010: bc81 403f 6c57 05be befd 2c3e 48d1 643e
-0.098195024 0.058647927 0.3319143 -0.09566412 0.7519796 -0.1302163 0.1689367 0.2234546

6.weight f4 [3, 8]
00000000: 0636 76bf d890 683e d37a a8bf c51d aebe
00000010: 5b88 9e3f 014b c0be eed6 b03e 6484 fbbe
00000020: 53ca 5e3f 6fee 9fbe b641 6e3f a32d e7bc
00000030: 9278 dabf b3ff e93d d764 2f3e 58d0 203f
00000040: ca97 8fbe 42a2 34be 86f9 a93e 103f 223e
00000050: b278 8d3e 729a 893e ee2f a4bd 7dcd 963e
-0.96176183 0.22711504 -1.3162483 -0.34007087 1.2385362 -0.37557223 0.34538978 -0.49124444
0.8702747 -0.31236598 0.93069017 -0.028220003 -1.7068045 0.11425724 0.17128311 0.6281791
-0.28045493 -0.17640021 0.33198184 0.15844369 0.27631146 0.26875645 -0.08016954 0.2945365

6.bias f4 [3]
00000000: bf3a 063f 2548 e6be adc9 b03e
0.5243339 -0.44976917 0.34528866
